…
Fixed Indices: [0, 1, 2, 3, 4, 5, 6, 7, 8, 13, 14, 16, 17, 25, 26, 34, 43]
Number of Fixed Indices: 17
Input Dimension: 4
Output Dimension: 62
Dataset: dataset/hand_dataset_all_fingers.csv
Closure Columns: ['ThumbClosure', 'IndexClosure', 'MiddleClosure', 'ThumbAbduction']
Training Start Time: 2025-06-07 15:40:33
PCA Components: N/A
Final Output Dimension: 62
Scaler Path: training_results/training_synergies_results/training_20250607_151807/scaler.save
PCA Path: training_results/training_synergies_results/training_20250607_151807/pca.save
Model Architecture: HandPoseTransformer(
  (input_embedding): Sequential(
    (0): Linear(in_features=4, out_features=64, bias=True)
    (1): GELU(approximate='none')
    (2): Linear(in_features=64, out_features=128, bias=True)
    (3): LayerNorm((128,), eps=1e-05, elementwise_affine=True)
  )
  (pos_encoder): PositionalEncoding(
    (dropout): Dropout(p=0.1, inplace=False)
  )
  (transformer): TransformerEncoder(
    (layers): ModuleList(
      (0): TransformerEncoderLayer(
        (self_attn): MultiheadAttention(
          (out_proj): NonDynamicallyQuantizableLinear(in_features=128, out_features=128, bias=True)
        )
        (linear1): Linear(in_features=128, out_features=512, bias=True)
        (dropout): Dropout(p=0.1, inplace=False)
        (linear2): Linear(in_features=512, out_features=128, bias=True)
        (norm1): LayerNorm((128,), eps=1e-05, elementwise_affine=True)
        (norm2): LayerNorm((128,), eps=1e-05, elementwise_affine=True)
        (dropout1): Dropout(p=0.1, inplace=False)
        (dropout2): Dropout(p=0.1, inplace=False)
      )
      (1): TransformerEncoderLayer(
        (self_attn): MultiheadAttention(
          (out_proj): NonDynamicallyQuantizableLinear(in_features=128, out_features=128, bias=True)
        )
        (linear1): Linear(in_features=128, out_features=512, bias=True)
        (dropout): Dropout(p=0.1, inplace=False)
        (linear2): Linear(in_features=512, out_features=128, bias=True)
        (norm1): LayerNorm((128,), eps=1e-05, elementwise_affine=True)
        (norm2): LayerNorm((128,), eps=1e-05, elementwise_affine=True)
        (dropout1): Dropout(p=0.1, inplace=False)
        (dropout2): Dropout(p=0.1, inplace=False)
      )
      (2): TransformerEncoderLayer(
        (self_attn): MultiheadAttention(
          (out_proj): NonDynamicallyQuantizableLinear(in_features=128, out_features=128, bias=True)
        )
        (linear1): Linear(in_features=128, out_features=512, bias=True)
        (dropout): Dropout(p=0.1, inplace=False)
        (linear2): Linear(in_features=512, out_features=128, bias=True)
        (norm1): LayerNorm((128,), eps=1e-05, elementwise_affine=True)
        (norm2): LayerNorm((128,), eps=1e-05, elementwise_affine=True)
        (dropout1): Dropout(p=0.1, inplace=False)
        (dropout2): Dropout(p=0.1, inplace=False)
      )
    )
  )
  (output_heads): ModuleDict(
    (thumb): FingerHead(
      (decoder): Sequential(
        (0): Linear(in_features=128, out_features=64, bias=True)
        (1): GELU(approximate='none')
        (2): Linear(in_features=64, out_features=18, bias=True)
      )
    )
    (index): FingerHead(
      (decoder): Sequential(
        (0): Linear(in_features=128, out_features=64, bias=True)
        (1): GELU(approximate='none')
        (2): Linear(in_features=64, out_features=13, bias=True)
      )
    )
    (middle): FingerHead(
      (decoder): Sequential(
        (0): Linear(in_features=128, out_features=64, bias=True)
        (1): GELU(approximate='none')
        (2): Linear(in_features=64, out_features=11, bias=True)
      )
    )
    (ring): FingerHead(
      (decoder): Sequential(
        (0): Linear(in_features=128, out_features=64, bias=True)
        (1): GELU(approximate='none')
        (2): Linear(in_features=64, out_features=10, bias=True)
      )
    )
    (pinky): FingerHead(
      (decoder): Sequential(
        (0): Linear(in_features=128, out_features=64, bias=True)
        (1): GELU(approximate='none')
        (2): Linear(in_features=64, out_features=10, bias=True)
      )
    )
  )
)
Training Duration: 0:22:25.378615
Best Test Loss: 0.005940921235160502
Final Learning Rate: 1.52587890625e-08
Model Save Path: training_results/training_synergies_results/training_20250607_151807/Transformer.pth
